…
Data distribution for client : 8 :::: {0: 437, 1: 292, 2: 41, 3: 93, 4: 398, 5: 718, 6: 1117, 7: 109, 8: 319, 9: 419}
Data distribution for client : 9 :::: {0: 468, 1: 139, 2: 1309, 3: 1815, 4: 10, 5: 772, 6: 41, 7: 36, 8: 2495, 9: 1}
Creating data loader for client: 0
Creating data loader for client: 1
Creating data loader for client: 2
Creating data loader for client: 3
Creating data loader for client: 4
Creating data loader for client: 5
Creating data loader for client: 6
Creating data loader for client: 7
Creating data loader for client: 8
Creating data loader for client: 9
Model: AllCNN(
  (conv1): Conv(
    (0): Conv2d(3, 96, kernel_size=(3, 3), stride=(1, 1), padding=(1, 1), bias=False)
    (1): BatchNorm2d(96, eps=1e-05, momentum=0.1, affine=True, track_running_stats=True)
    (2): ReLU()
  )
  (conv2): Conv(
    (0): Conv2d(96, 96, kernel_size=(3, 3), stride=(1, 1), padding=(1, 1), bias=False)
    (1): BatchNorm2d(96, eps=1e-05, momentum=0.1, affine=True, track_running_stats=True)
    (2): ReLU()
  )
  (conv3): Conv(
    (0): Conv2d(96, 192, kernel_size=(3, 3), stride=(2, 2), padding=(1, 1), bias=False)
    (1): BatchNorm2d(192, eps=1e-05, momentum=0.1, affine=True, track_running_stats=True)
    (2): ReLU()
  )
  (dropout1): Sequential(
    (0): Identity()
  )
  (features): Sequential(
    (0): Identity()
  )
  (conv4): Conv(
    (0): Conv2d(192, 192, kernel_size=(3, 3), stride=(1, 1), padding=(1, 1), bias=False)
    (1): BatchNorm2d(192, eps=1e-05, momentum=0.1, affine=True, track_running_stats=True)
    (2): ReLU()
  )
  (conv5): Conv(
    (0): Conv2d(192, 192, kernel_size=(3, 3), stride=(1, 1), padding=(1, 1), bias=False)
    (1): BatchNorm2d(192, eps=1e-05, momentum=0.1, affine=True, track_running_stats=True)
    (2): ReLU()
  )
  (conv6): Conv(
    (0): Conv2d(192, 192, kernel_size=(3, 3), stride=(2, 2), padding=(1, 1), bias=False)
    (1): BatchNorm2d(192, eps=1e-05, momentum=0.1, affine=True, track_running_stats=True)
    (2): ReLU()
  )
  (dropout2): Sequential(
    (0): Identity()
  )
  (conv7): Conv(
    (0): Conv2d(192, 192, kernel_size=(3, 3), stride=(1, 1), padding=(1, 1), bias=False)
    (1): BatchNorm2d(192, eps=1e-05, momentum=0.1, affine=True, track_running_stats=True)
    (2): ReLU()
  )
  (conv8): Conv(
    (0): Conv2d(192, 192, kernel_size=(1, 1), stride=(1, 1), bias=False)
    (1): BatchNorm2d(192, eps=1e-05, momentum=0.1, affine=True, track_running_stats=True)
    (2): ReLU()
  )
  (pool): AdaptiveAvgPool2d(output_size=(2, 2))
  (flatten): Flatten()
  (classifier): Sequential(
    (0): Linear(in_features=768, out_features=10, bias=True)
  )
)
Global Iteration: 0
Client: 0
Epoch 0 [1/88] loss=2.4288
Epoch 0 [2/88] loss=1.5283
Epoch 0 [3/88] loss=1.1090
Epoch 0 [4/88] loss=1.1304
Epoch 0 [5/88] loss=1.2983
Epoch 0 [6/88] loss=0.9774
Epoch 0 [7/88] loss=1.0195
Epoch 0 [8/88] loss=0.6898
Epoch 0 [9/88] loss=0.7636
Epoch 0 [10/88] loss=0.9879
Epoch 0 [11/88] loss=0.8377
Epoch 0 [12/88] loss=0.9628
…
